User_Data/optimization_guide_model_store/20/E6DC4029A1E4B4C1/8A04758B75A8CDDF/model.tflite (tflite, 64852 bytes, 5 tensors)

arith.constant f4 [1, 64]
0.20749171 -0.3176775 -0.20826691 0.06699011 0.20593686 0.27848774 0.1675046 -0.13821617
-0.15718006 0.3333474 0.27635068 -0.033531915 -0.16168101 -0.13442013 0.116324075 0.32772833
-0.2730848 -0.037401203 -0.15613382 -0.06952575 0.25737166 -0.03252562 0.29529774 -0.019967437
0.17072164 -0.21911572 -0.07084794 -0.14949043 -0.17537858 0.17151758 0.17975254 -0.17250852
0.29314938 -0.050421786 0.301423 -0.13386773 0.0686829 -0.18545006 0.10753788 0.2521618
0.20832779 -0.15395631 0.2108904 0.223104 0.21855608 -0.18526876 0.17725383 -0.12241311
0.29542688 0.3122339 -0.1356169 -0.11358283 0.05340391 0.35961384 -0.11768825 -0.20252779
0.019543964 0.10394249 0.19234912 -0.097025916 -0.2504395 -0.2738932 0.014456177 0.26447666
00000000: b578 543e a0a6 a2be ec43 55be 1c32 893d
00000010: 1de1 523e f295 8e3e 5386 2b3e 8a88 0dbe
00000020: cff3 20be 83ac aa3e d67d 8d3e c358 09bd
00000030: b58f 25be 6ea5 09be 513b ee3d 02cc a73e
00000040: c5d1 8bbe 0132 19bd 8be1 1fbe 8463 8ebd
00000050: 38c6 833e 9639 05bd 4431 973e c092 a3bc
00000060: a7d1 2e3e df5f 60be ba18 91bd 0514 19be
00000070: 7196 33be 4ea2 2f3e 0d11 383e 13a6 30be
00000080: ad17 963e 1387 4ebd 1e54 9a3e 9f14 09be
00000090: 9fa9 8c3d 9fe6 3dbe d23c dc3d 5a1b 813e
000000a0: e153 553e b9a6 1dbe a7f3 573e 6075 643e
000000b0: 2acd 5f3e 18b7 3dbe 0782 353e bab3 fabd
000000c0: 3142 973e 1fdd 9f3e 28df 0abe 1d9e e8bd
000000d0: 0fbe 5a3d 4e1f b83e 8a06 f1bd 7263 4fbe
000000e0: aa1a a03c cddf d43d 2bf7 443e 86b5 c6bd
000000f0: 9b39 80be bb3b 8cbe 9ad9 6c3c 7c69 873e

arith.constant1 f4 [64, 128]
0.16165844 0.018998077 0.010335899 0.039798133 -0.09980995 0.0075400854 0.06819413 0.012637983
0.056876235 -0.015771927 -0.05488218 -0.11943377 0.041648652 0.08449522 -0.035904683 0.007993066
0.13645303 0.10503763 -0.12569986 -0.14794447 -0.0068015177 0.19617213 0.03217624 -0.18315989
-0.05256831 -0.010134761 0.028389957 0.025626913 0.03989902 -0.076174095 0.05318642 -0.09219712
-0.034301724 -0.1388596 -0.11432279 0.12940566 -0.016029574 0.14377388 -0.095729604 -0.11605627
0.1700434 -0.021534322 -0.027528256 -0.17286572 0.14143986 0.109079026 -0.15976684 0.17993967
-0.03810471 -0.029525016 0.079868145 0.22179589 0.11634366 0.16018586 -0.05646463 -0.15631244
0.12656927 -0.20511982 0.009597804 -0.16160403 -0.009457642 -0.07716464 0.120046645 -0.12830667
0.12844853 -0.15887234 -0.1297217 -0.11353571 0.06905214 0.020062495 0.073314615 -0.15352747
0.1928449 -0.12675786 -0.1714887 -0.0049161585 0.05921456 0.13666351 -0.1386815 0.064504445
0.100361 0.021021418 -0.13208252 0.085596174 0.10826718 -0.018572647 0.15592381 0.008931445
0.12694949 0.0750754 -0.13359591 -0.15149555 0.18584432 0.2481621 -0.15364821 0.023728825
-0.02751047 -0.0032676188 -0.043439176 0.045952965 0.09121684 -0.1532523 -0.14708538 -0.10487968
-0.02152498 -0.11168357 -0.017632596 -0.10291393 0.16978668 -0.0025527398 0.17791118 -0.16960275
-0.030925423 -0.16441876 0.1496672 -0.029323274 -0.07567561 0.15688023 0.035630953 0.13495342
-0.07939291 -0.109729074 0.11885792 0.18451628 0.14704092 0.09556023 -0.09257824 -0.08075886
-0.062327746 -0.084970295 -0.02634615 -0.1086216 0.044460125 0.15071939 -0.14312276 -0.117660314
-0.17477684 0.0053353324 0.106396995 0.05891309 0.15915078 0.1425859 -0.0034091854 -0.08793469
0.109019876 -0.121419564 0.18661357 0.15340656 0.044493277 0.13416609 0.040326457 0.11702512
0.116022535 0.13511354 0.16582878 -0.097825766 -0.058556758 -0.13436295 0.16647325 -0.16282432
0.07987009 -0.1896365 0.11890749 0.03524064 0.07603419 0.15941441 -0.098881505 -0.122914165
0.121919505 0.05460827 0.10490636 -0.029451694 0.0072713466 -0.08842712 0.17729184 0.09895077
-0.12048734 0.118643604 0.03460321 0.10630005 0.0038071491 -0.021533929 0.11281839 -0.0857446
-0.15252781 -0.119184546 -0.1795673 0.10719227 -0.15399492 -0.15422812 -0.06905228 0.015595924
-0.093333356 -0.1647048 0.05866878 0.19735219 0.08451286 -0.088584565 -0.018687975 0.11642092
0.00016151411 0.015256608 0.14269619 -0.14082544 -0.24590276 -0.09510414 0.1666215 -0.061631687
0.17292759 0.07958016 0.09513634 -0.04007824 -0.117395066 -0.085063316 -0.025905438 -0.13210087
-0.11703603 0.15076233 -0.02015984 0.033328675 0.09014955 -0.20379604 -0.045724276 -0.010621728
-0.02017564 -0.039652396 0.038971297 0.013998604 0.15733688 -0.15814348 -0.015593976 -0.04483536
-0.16955042 -0.15147486 -0.18349472 -0.018572785 0.06386617 -0.15539972 0.06296946 -0.07924379
0.06367494 0.020601606 0.11574384 0.08031571 -0.17399634 0.18502507 0.023572307 0.039260603
0.05981098 0.18876758 0.085005894 -0.053759087 -0.14548028 -0.08257254 -0.10937211 0.12269593
00000000: ca89 253e dba1 9b3c e757 293c 5e03 233d
00000010: 2969 ccbd d212 f73b 5da9 8b3d 8b0f 4f3c
00000020: 0ef7 683d 2134 81bc 23cc 60bd b199 f4bd
00000030: c797 2a3d d40b ad3d ca10 13bd 59f5 023c
00000040: 58ba 0b3e f81d d73d 77b7 00be c17e 17be
00000050: 44df debb 59e1 483e 3ccb 033d 448e 3bbe
00000060: de51 57bd 450c 26bc 0e92 e83c 88ef d13c
00000070: 286d 233d 2a01 9cbd 01da 593d d8d1 bcbd
00000080: f77f 0cbd 3631 0ebe 1122 eabd eb82 043e
00000090: 7450 83bc 7639 133e e20d c4bd e9ae edbd
000000a0: db1f 2e3e bf68 b0bc f082 e1bc b603 31be
000000b0: 9cd5 103e d364 df3d eb99 23be 1b42 383e
000000c0: af13 1cbd 72de f1bc e991 a33d 761e 633e
000000d0: 9645 ee3d c307 243e 7547 67bd 5e10 20be
000000e0: 609b 013e ee0a 52be 1c40 1d3c 877b 25be
000000f0: 3af4 1abc 7f08 9ebd 04db f53d d362 03be
00000100: 0388 033e 6eaf 22be c4d5 04be 6985 e8bd
00000110: 356b 8d3d 1a5a a43c f925 963d 4e36 1dbe
00000120: 2279 453e d0cc 01be bc9a 2fbe ba17 a1bb
00000130: f78a 723d 85f1 0b3e 8602 0ebe e81a 843d
00000140: 118a cd3d 1c35 ac3c a440 07be 0c4d af3d
00000150: 2fbb dd3d aa25 98bc 7eaa 1f3e 3255 123c
00000160: 0cff 013e 22c1 993d 5ecd 08be a621 1bbe
00000170: f94d 3e3e 351e 7e3e f555 1dbe f462 c23c
00000180: a35d e1bc 8c25 56bb 47ed 31bd 2d39 3c3d
00000190: e5cf ba3d 2cee 1cbe 8d9d 16be 28cb d6bd
000001a0: 2855 b0bc 5bba e4bd 3c72 90bc 8ac4 d2bd
000001b0: 8fdc 2d3e de4b 27bb 592e 363e 58ac 2dbe
000001c0: 5057 fdbc 645d 28be 5c42 193e 5d37 f0bc
000001d0: d0fb 9abd 36a5 203e c3f1 113d 3b31 0a3e
000001e0: c098 a2bd a3b9 e0bd c86b f33d d6f1 3c3e
000001f0: e591 163e 15b5 c33d a999 bdbd e764 a5bd
00000200: 614b 7fbd e804 aebd e2d3 d7bc 0075 debd
00000210: d21b 363d 2f56 1a3e c68e 12be e4f7 f0bd
00000220: b3f8 32be 03d4 ae3b abe6 d93d da4e 713d
00000230: 6cf8 223e 0a02 123e a46c 5fbb 1a17 b4bd
00000240: d045 df3d d2aa f8bd a117 3f3e 9c16 1d3e
00000250: 953e 363d d662 093e 5b2d 253d deaa ef3d
00000260: 399d ed3d 345b 0a3e 05cf 293e e058 c8bd
00000270: 36d9 6fbd 7196 09be f777 2a3e 6bbb 26be
00000280: ee92 a33d 1230 42be c585 f33d 7d58 103d
00000290: d0b7 9b3d 883d 233e 6382 cabd 6cba fbbd
000002a0: efb0 f93d ecac 5f3d 25d9 d63d ae44 f1bc
000002b0: 7a44 ee3b 4719 b5bd fe8b 353e b4a6 ca3d
000002c0: 11c2 f6bd 6bfb f23d 18bc 0d3d d7b3 d93d
000002d0: 5d81 793b ec67 b0bc 540d e73d dd9a afbd
000002e0: 4030 1cbe 0717 f4bd 7ee0 37be 9f87 db3d
000002f0: d8b0 1dbe faed 1dbe 486b 8dbd 0c86 7f3c
00000300: 8f25 bfbd 60a8 28be ad4e 703d b116 4a3e
00000310: 1415 ad3d d36b b5bd 8617 99bc 176e ee3d
00000320: 1d5c 2939 daf6 793c f31e 123e 8b34 10be
00000330: efcd 7bbe f6c5 c2bd d49e 2a3e 8271 7cbd
00000340: ee13 313e ecfa a23d d7d6 c23d 1529 24bd
00000350: d36c f0bd ad35 aebd a437 d4bc 7345 07be
00000360: 96b0 efbd 7161 1a3e 4026 a5bc a683 083d
00000370: 54a0 b83d e9af 50be 6149 3bbd c206 2ebc
00000380: 6247 a5bc 8d6a 22bd 5ea0 1f3d 675a 653c
00000390: eb1c 213e 5df0 21be e07d 7fbc 48a5 37bd
000003a0: a09e 2dbe 3a1c 1bbe 0ae6 3bbe f425 98bc
000003b0: 44cc 823d 1b21 1fbe 22f6 803d 914a a2bd
000003c0: 0268 823d b3c4 a83c 1b0b ed3d 907c a43d
000003d0: 192c 32be 3677 3d3e b61a c13c bacf 203d
000003e0: 5cfc 743d 4a4c 413e 9217 ae3d 7d32 5cbd
000003f0: c8f8 14be cb1b a9bd 7cfe dfbd 0148 fb3d

arith.constant2 f4 [128, 12]
0.16199629 0.19698416 -0.27247176 0.14577875 -0.13720582 -0.1976285 -0.026819969 0.010273038
-0.08803039 0.027220374 -0.011960535 -0.12689433 -0.11018721 -0.033033144 0.04295365 -0.17179303
0.13081026 0.19347872 0.23469886 -0.16370262 0.07092134 0.123714656 -0.030077457 -0.05616535
0.1669029 -0.124503545 0.15552343 -0.08059579 -0.12654547 0.05117119 0.045301836 -0.029836524
-0.23281862 -0.1675509 0.0042331293 0.082177304 0.14256257 -0.026169846 -0.1738954 0.097887255
0.12532482 0.12822892 -0.18233947 -0.06923421 0.14844382 0.14257726 -0.05704724 -0.09667094
0.015416179 0.15946786 -0.06320732 -0.041957185 0.086474225 0.09408687 -0.025999282 0.10319497
-0.18766044 0.22605205 -0.01897121 0.090537265 0.08784557 -0.12956958 0.0902039 0.0156855
-0.057282038 0.0067541576 -0.23222171 0.025811614 0.114557095 -0.10455636 -0.09103552 -0.04119762
-0.07509631 0.13145635 0.11654304 -0.09437564 0.13774891 0.18329757 0.14249076 -0.12962203
0.1336243 0.09985501 -0.08462425 -0.11005203 -0.09867619 -0.033539407 -0.021887809 -0.16032721
-0.10939659 0.07761927 -0.07700203 -0.050939366 -0.08906611 -0.11794538 0.1533955 0.15133588
-0.22834717 0.2943715 0.15988116 0.16720808 -0.107707046 -0.06935686 -0.11577641 0.21304229
0.09208062 -0.014474125 0.06815976 0.024767885 0.05278783 0.19631706 -0.06692155 -0.06811944
0.1334952 0.009426729 0.0674303 0.024544626 0.065393664 0.17313394 -0.09088717 -0.09692858
0.10148539 0.11497355 0.024341594 -0.06238641 0.082392044 -0.008359544 0.071672484 0.1509091
-0.054791383 -0.04988488 -0.22938935 -0.18537134 0.051528823 0.12211563 0.12738529 0.0072109876
-0.113739505 0.09962505 -0.20505686 0.19827433 -0.12578504 0.07321836 0.08260598 -0.124739416
0.068038605 -0.1382717 0.087179996 -0.035955653 0.10410094 0.10512632 -0.18265073 0.18211727
0.02906847 0.0071892664 -0.17173547 -0.015686592 -0.027542133 -0.20020178 0.17453615 0.20930971
-0.017158683 0.19194973 -0.11801166 0.071105324 -0.001712256 -0.024424678 0.28352037 -0.14899936
0.022453891 -0.02028746 -0.13944797 0.098560736 0.05244898 -0.10246935 -0.08663376 -0.025780989
-0.11731741 0.073115766 0.29887247 0.22880523 0.14280264 -0.038841948 -0.043907925 -0.040060144
0.188329 0.040782638 0.09819503 -0.041165072 0.008582505 -0.031505216 0.13725619 -0.09848007
-0.13941802 -0.13008852 0.25666848 -0.075424396 -0.030617198 0.02068007 0.051675618 -0.023324607
-0.16962934 0.10899334 -0.007204931 -0.14933822 0.1452096 -0.0042396355 0.18740302 -0.056843024
-0.056439105 0.22343984 -0.08294215 0.16003715 -0.28032947 0.054982685 0.15842246 -0.16999188
-0.09502177 -0.1213212 0.06609847 -0.061454568 -0.16702911 -0.18648641 -0.09321558 0.17245995
-0.07734061 -0.15313552 -0.048696216 -0.048580334 -0.077783726 -0.11650088 -0.071936026 0.0737349
0.15544012 -0.13378395 -0.075722076 0.08833335 0.23517166 0.0019296556 0.02797007 -0.14493866
0.123823635 0.07417388 -0.042172138 -0.1089089 0.094428055 -0.05303448 -0.24146353 -0.13282387
0.19899331 0.07341726 -0.18315627 0.017915875 -0.21152113 0.041548185 0.06535125 -0.22277631
00000000: 5be2 253e 37b6 493e 6b81 8bbe 0647 153e
00000010: af7f 0cbe 205f 4abe 8db5 dbbc 3f50 283c
00000020: 4749 b4bd 43fd de3c 1ff6 43bc 96f0 01be
00000030: d5a9 e1bd c34d 07bd 2bf0 2f3d 83ea 2fbe
00000040: 20f3 053e 491f 463e e654 703e a9a1 27be
00000050: 353f 913d 1c5e fd3d 0065 f6bc a30d 66bd
00000060: 98e8 2a3e b7fb febd 8941 1f3e 680f a5bd
00000070: 2395 01be e298 513d 6b8e 393d ba6b f4bc
00000080: 0168 6ebe 7792 2bbe 10b6 8a3b 934c a83d
00000090: ecfb 113e 2562 d6bc a311 32be 1d79 c83d
000000a0: 2655 003e 714e 033e 33b7 3abe aaca 8dbd
000000b0: a801 183e c6ff 113e 5eaa 69bd 6afb c5bd
000000c0: 2494 7c3c 8b4b 233e d772 81bd 4cdb 2bbd
000000d0: 6619 b13d 9eb0 c03d 72fc d4bc e257 d33d
000000e0: 0f2a 40be 307a 673e 8369 9bbc 9a6b b93d
000000f0: 61e8 b33d e3ad 04be d3bc b83d e17e 803c
00000100: 92a0 6abd fb51 dd3b 87cb 6dbe e172 d33c
00000110: e99c ea3d a521 d6bd d570 babd d6be 28bd
00000120: 18cc 99bd 7e9c 063e 1eae ee3d 0448 c1bd
00000130: 0d0e 0d3e 5cb2 3b3e 19e9 113e a3bb 04be
00000140: cfd4 083e c980 cc3d 7b4f adbd f562 e1bd
00000150: be16 cabd 9e60 09bd 104e b3bc d12c 24be
00000160: 520b e0bd daf6 9e3d 3eb3 9dbd cca5 50bd
00000170: 4b68 b6bd 598d f1bd b613 1d3e cbf7 1a3e
00000180: d7d3 69be dcb7 963e e3b7 233e 9838 2b3e
00000190: 8395 dcbd f80a 8ebd 2f1c edbd c227 5a3e
000001a0: c494 bc3d e124 6dbc 5897 8b3d 05e6 ca3c
000001b0: 0d38 583d 5707 493e 2a0e 89bd 3482 8bbd
000001c0: f7b2 083e 9172 1a3c e618 8a3d d011 c93c
000001d0: 1ded 853d 064a 313e 0d23 babd 7e82 c6bd
000001e0: 92d7 cf3d 4177 eb3d 0668 c73c e488 7fbd
000001f0: 29bd a83d 78f6 08bc 06c9 923d ea87 1a3e
00000200: ee6c 60bd 1754 4cbd 0be5 6abe fcd1 3dbe
00000210: e30f 533d c217 fa3d 4a71 023e 264a ec3b
00000220: 42f0 e8bd 3808 cc3d 6dfa 51be 6d08 4b3e
00000230: cbcd 00be 82f3 953d 532d a93d 6177 ffbd
00000240: d357 8b3d 1997 0dbe 6d8b b23d 3c46 13bd
00000250: e032 d53d 784c d73d cb08 3bbe f37c 3a3e
00000260: 0021 ee3c f093 eb3b 6cdb 2fbe 2b81 80bc
00000270: 0aa0 e1bc b201 4dbe 9bb9 323e 4955 563e
00000280: 5e90 8cbc 788e 443e 19b0 f1bd ab9f 913d
00000290: c76d e0ba 4316 c8bc 9529 913e 4a93 18be
000002a0: 39f1 b73c e331 a6bc 73cb 0ebe 36da c93d
000002b0: bed4 563d 73db d1bd 0a6d b1bd a732 d3bc
000002c0: 1c44 f0bd b8bd 953d d005 993e eb4b 6a3e
000002d0: db3a 123e bc18 1fbd ccd8 33bd 1b16 24bd
000002e0: 51d9 403e b20b 273d 7a1a c93d b59c 28bd
000002f0: a39d 0c3c 9d0b 01bd e38c 0c3e ebaf c9bd
00000300: 99c3 0ebe ed35 05be 0d6a 833e 1b78 9abd
00000310: ebd0 fabc 4069 a93c d0a9 533d 3f13 bfbc
00000320: 50b3 2dbe e637 df3d 5817 ecbb 1eec 18be
00000330: d3b1 143e a4ec 8abb 94e6 3f3e 3bd4 68bd
00000340: b12c 67bd 6acd 643e 93dd a9bd c7e0 233e
00000350: 5887 8fbe 8635 613d 7f39 223e 5a12 2ebe
00000360: c69a c2bd 4077 f8bd a25e 873d c9b7 7bbd
00000370: ae09 2bbe 4bf6 3ebe cfe7 bebd 5799 303e
00000380: c164 9ebd 8fcf 1cbe af75 47bd 2cfc 46bd
00000390: 134d 9fbd 0398 eebd 3253 93bd 5302 973d
000003a0: b22b 1f3e a9fe 08be 2d14 9bbd 1ee8 b43d
000003b0: d7d0 703e 7fec fc3a 7d21 e53c cd6a 14be
000003c0: 3f97 fd3d 7ae8 973d b1bc 2cbd a10b dfbd
000003d0: 7f63 c13d af3a 59bd 3742 77be fb02 08be
000003e0: e7c4 4b3e ca5b 963d 518d 3bbe 50c4 923c
000003f0: ff98 58be 6e2e 2a3d e0d6 853d 791f 64be

arith.constant29 f4 [64]
-0.0737888 -0.053158406 -0.046330802 0.015641645 -0.013294513 -0.013266988 -0.034074333 -0.0020942932
-0.04626159 0.08669059 -0.01893471 -0.012967463 -0.016957037 0.01893778 0.04269382 0.04308324
-0.0111632375 0.0035630001 0.00566895 -0.005149741 0.040809046 0.027303183 0.021223636 -0.010686948
0.010851154 -0.0010644147 0.05412229 0.010910649 -0.07962591 -0.16232823 0.033131838 -0.07312395
0.017049331 0.019292308 -0.030162344 -0.025800755 -0.017097335 0.018836634 0.021857912 0.037199296
0.052646644 -0.03861222 -0.011815769 0.05599213 0.013657364 -0.0025447742 0.03208319 -0.008052127
-0.029125687 -0.13166972 -0.04620827 0.0037387453 0.017761106 0.024343928 -0.029974751 -0.022142572
-0.012357296 0.035047103 -0.024603615 -0.014670421 -0.07969259 -0.023826135 -0.011423878 0.05148065
00000000: 951e 97bd a1bc 59bd 5ec5 3dbd e822 803c
00000010: 3bd1 59bc c85d 59bc 8791 0bbd 6940 09bb
00000020: cb7c 3dbd d68a b13d f71c 9bbc 7b75 54bc
00000030: 7ce9 8abc 6723 9b3c b7df 2e3d 0d78 303d
00000040: 03e6 36bc 3981 693b 99c2 b93b 29bf a8bb
00000050: 6327 273d edaa df3c 31dd ad3c 4f18 2fbc
00000060: 0ac9 313c d583 8bba 56af 5d3d 94c2 323c
00000070: e912 a3bd 5f39 26be 40b5 073d 02c2 95bd
00000080: 0aab 8b3c e70a 9e3c 0517 f7bc 1b5c d3bc
00000090: b60f 8cbc 494f 9a3c 5d0f b33c 4a5e 183d
000000a0: 02a4 573d d927 1ebd ed96 41bc 0158 653d
000000b0: 23c3 5f3c 3ac6 26bb aa69 033d 12ed 03bc
000000c0: fe98 eebc 6dd4 06be e244 3dbd bd05 753b
000000d0: bd7f 913c eb6c c73c 9c8d f5bc 5764 b5bc
000000e0: 4276 4abc 8d8d 0f3d 858d c9bc 355c 70bc
000000f0: de35 a3bd 072f c3bc 382b 3bbc 60dd 523d

arith.constant30 f4 [128]
-0.03460254 0.0065128077 0.005271917 -0.04209076 -0.1131063 -0.053807773 -0.055547282 0.0025697642
-0.07343687 -0.09573552 0.01561613 -0.07633386 -0.009653575 0.051207256 -0.00019384218 0.019166946
0.029350765 0.0728229 -0.014508356 0.04208706 -0.03756073 -0.091698475 -0.02887651 -0.0029616882
0.06624729 -0.016030138 -0.027206337 -0.11709808 -0.10108734 -0.031202117 -0.0028118563 -0.011295914
0.012908577 0.06536347 0.053457867 -0.008167476 0.034479648 -0.04389102 -0.09587969 -0.06857522
-0.059827343 -0.07544963 0.06948126 -0.030102035 -0.011437928 0.0349677 -0.0036358184 -0.051688816
0.010783813 -0.03277759 -0.037271347 -0.15142708 -0.10664652 -0.020741142 0.035543807 -0.018027358
0.0083900355 0.019902762 0.07907334 -0.0332645 0.03732882 0.043547295 -0.01542795 0.08444586
-0.06702989 0.10345199 -0.01596403 -0.038150605 -0.051866274 0.03371556 -0.03521079 0.0063120076
-0.05332917 0.046637572 0.03765102 -0.018998066 0.08218223 -0.017654981 -0.05225714 -0.027250191
0.002733898 -0.0250491 0.024392063 0.036674302 -0.062175475 0.051920693 -0.07466123 -0.022838883
-0.03157874 -0.0006464822 0.0071950178 0.033042993 -0.0019130801 -0.104061946 0.009675899 0.0019032318
-0.04516227 -0.09411695 0.022633137 0.045972195 -0.013469806 -0.02458207 0.010968276 -0.043459434
0.009847107 0.11338079 -0.011221857 -0.02624198 -0.025607381 0.023374096 0.024380928 -0.08766822
-0.0277741 0.06700194 -0.015293004 -0.0508795 0.06784072 -0.027764985 -0.029009167 -0.059162892
-0.033247717 -0.048699606 -0.036181018 -0.005416488 -0.0040349783 0.078293264 -0.017849172 -0.025589675
00000000: 65bb 0dbd 6469 d53b 0cc0 ac3b 5c67 2cbd
00000010: 47a4 e7bd 8a65 5cbd 8c85 63bd 7d69 283b
00000020: 1266 96bd fc10 c4bd ccda 7f3c ed54 9cbd
00000030: 072a 1ebc b3be 513d 1d42 4bb9 0004 9d3c
00000040: 0471 f03c 2c24 953d 75b4 6dbc 7b63 2c3d
00000050: 48d9 19bd 69cc bbbd 6e8e ecbc e218 42bb
00000060: a9ac 873d a351 83bc d3df debc 1ed1 efbd
00000070: e106 cfbd 959b ffbc 1f47 38bb 7f12 39bc
00000080: 7f7e 533c 48dd 853d a3f6 5a3d e1d0 05bc
00000090: 883a 0d3d 12c7 33bd 925c c4bd 2a71 8cbd
000000a0: 840d 75bd 5685 9abd 314c 8e3d 8b98 f6bc
000000b0: 2666 3bbc 4a3a 0f3d e946 6ebb a7b7 53bd
000000c0: 97ae 303c cb41 06bd d7a9 18bd b30f 1bbe
000000d0: 7e69 dabd 54e9 a9bc 6296 113d 1cae 93bc
000000e0: 5c76 093c 1e0b a33c 34f1 a13d 5b40 08bd
000000f0: 1be6 183d a65e 323d 83c5 7cbc f3f1 ac3d
00000100: f846 89bd a3de d33d ffc6 82bc cf43 1cbd
00000110: bb71 54bd 5419 0a3d 3039 10bd f5d4 ce3b
00000120: b06f 5abd 0a07 3f3d f537 1a3d d5a1 9bbc
00000130: 284f a83d 2ea1 90bc 950b 56bd cb3b dfbc
00000140: 332b 333b c533 cdbc ddd1 c73c cb37 163d
00000150: b6ab 7ebd cbaa 543d fde7 98bd 9c18 bbbc
00000160: b558 01bd b078 29ba 2fc4 eb3b 1758 073d
00000170: 51c0 faba 6e1e d5bd a987 1e3c dd75 f93a
00000180: 13fc 38bd 63c0 c0bd 2169 b93c 574d 3c3d
00000190: 76b0 5cbc 5660 c9bc 49b4 333c 8502 32bd
000001a0: c355 213c 3034 e83d e1db 37bc 6cf9 d6bc
000001b0: 92c6 d1bc 087b bf3c 83ba c73c 658b b3bd
000001c0: 8286 e3bc 5038 893d 828f 7abc 0667 50bd
000001d0: 13f0 8a3d 6573 e3bc a2a4 edbc ca54 72bd
000001e0: c22e 08bd 3d79 47bd 8c32 14bd cb7c b1bb
000001f0: da37 84bb 3858 a03d 6d38 92bc 70a1 d1bc
